…
 'n01614925' 'n02487347' 'n04192698' 'n02128385' 'n12057211' 'n04146614'
 'n04153751' 'n02134418' 'n01484850' 'n03496892' 'n01756291' 'n02279972'
 'n04317175' 'n01608432' 'n02655020' 'n02486261' 'n07753113' 'n02177972'
 'n01667114' 'n01582220' 'n02256656' 'n01981276']

Size of training mini-batch:  128
Size of test mini-batch:  128

Buffer Size:  10000
Loading Traning
Loading Testing
Model: "ResNet-50"
_________________________________________________________________
Layer (type)                 Output Shape              Param #   
=================================================================
Data-Augmentation (Sequentia (None, 200, 200, 3)       0         
_________________________________________________________________
conv2d (Conv2D)              (None, 100, 100, 64)      1728      
_________________________________________________________________
batch_normalization (BatchNo (None, 100, 100, 64)      256       
_________________________________________________________________
activation (Activation)      (None, 100, 100, 64)      0         
_________________________________________________________________
max_pooling2d (MaxPooling2D) (None, 50, 50, 64)        0         
_________________________________________________________________
residual__block (Residual_Bl (None, 50, 50, 64)        74240     
_________________________________________________________________
residual__block_1 (Residual_ (None, 50, 50, 64)        74240     
_________________________________________________________________
residual__block_2 (Residual_ (None, 50, 50, 64)        74240     
_________________________________________________________________
residual__block_3 (Residual_ (None, 50, 50, 64)        74240     
_________________________________________________________________
residual__block_4 (Residual_ (None, 50, 50, 64)        74240     
_________________________________________________________________
residual__block_5 (Residual_ (None, 50, 50, 64)        74240     
_________________________________________________________________
residual__block_6 (Residual_ (None, 25, 25, 128)       230912    
_________________________________________________________________
residual__block_7 (Residual_ (None, 25, 25, 128)       295936    
_________________________________________________________________
residual__block_8 (Residual_ (None, 25, 25, 128)       295936    
_________________________________________________________________
residual__block_9 (Residual_ (None, 25, 25, 128)       295936    
_________________________________________________________________
residual__block_10 (Residual (None, 25, 25, 128)       295936    
_________________________________________________________________
residual__block_11 (Residual (None, 25, 25, 128)       295936    
_________________________________________________________________
residual__block_12 (Residual (None, 13, 13, 256)       920576    
_________________________________________________________________
residual__block_13 (Residual (None, 13, 13, 256)       1181696   
_________________________________________________________________
residual__block_14 (Residual (None, 13, 13, 256)       1181696   
_________________________________________________________________
residual__block_15 (Residual (None, 13, 13, 256)       1181696   
_________________________________________________________________
residual__block_16 (Residual (None, 13, 13, 256)       1181696   
_________________________________________________________________
residual__block_17 (Residual (None, 13, 13, 256)       1181696   
_________________________________________________________________
residual__block_18 (Residual (None, 7, 7, 512)         3676160   
_________________________________________________________________
residual__block_19 (Residual (None, 7, 7, 512)         4722688   
_________________________________________________________________
residual__block_20 (Residual (None, 7, 7, 512)         4722688   
_________________________________________________________________
residual__block_21 (Residual (None, 7, 7, 512)         4722688   
_________________________________________________________________
residual__block_22 (Residual (None, 7, 7, 512)         4722688   
_________________________________________________________________
residual__block_23 (Residual (None, 7, 7, 512)         4722688   
_________________________________________________________________
global_average_pooling2d (Gl (None, 512)               0         
_________________________________________________________________
flatten (Flatten)            (None, 512)               0         
_________________________________________________________________
dense (Dense)                (None, 880)               451440    
=================================================================
Total params: 36,728,112
Trainable params: 36,703,152
Non-trainable params: 24,960
_________________________________________________________________
/lustre/work/netthinker/ele3/Research/StanfordExperiments

Training started ...
Epoch 1/300
   1/8833 [..............................] - ETA: 546:08:27 - loss: 7.0484 - categorica
…
